ST Edge AI Core v2.0.0-20049
Created date          : 2025-02-20 21:57:51
Parameters            : generate --target stm32u5 --name network -m C:/Users/yukse/Desktop/Accelerator_Workshop_EdgeAI-master/Accelerator_Workshop_EdgeAI-master/Activity2_Bare-Metal_Edge-AI_Solution/Models/Model_CNN_Hand_Character_Recognition_0_9246.tflite --compression none --verbosity 1 --workspace C:/Users/yukse/AppData/Local/Temp/mxAI_workspace155853364106740016406669209888847241 --output C:/Users/yukse/.stm32cubemx/network_output

Exec/report summary (generate)
----------------------------------------------------------------------------------------------------------------------------------------------------------------------------------------------------------------------
model file         :   C:\Users\yukse\Desktop\Accelerator_Workshop_EdgeAI-master\Accelerator_Workshop_EdgeAI-master\Activity2_Bare-Metal_Edge-AI_Solution\Models\Model_CNN_Hand_Character_Recognition_0_9246.tflite   
type               :   tflite                                                                                                                                                                                         
c_name             :   network                                                                                                                                                                                        
compression        :   none                                                                                                                                                                                           
options            :   allocate-inputs, allocate-outputs                                                                                                                                                              
optimization       :   balanced                                                                                                                                                                                       
target/series      :   stm32u5                                                                                                                                                                                        
workspace dir      :   C:\Users\yukse\AppData\Local\Temp\mxAI_workspace155853364106740016406669209888847241                                                                                                           
output dir         :   C:\Users\yukse\.stm32cubemx\network_output                                                                                                                                                     
model_fmt          :   float                                                                                                                                                                                          
model_name         :   Model_CNN_Hand_Character_Recognition_0_9246                                                                                                                                                    
model_hash         :   0x122bb03eeb117a0b5d0eec7872d72f29                                                                                                                                                             
params #           :   71,077 items (277.64 KiB)                                                                                                                                                                      
----------------------------------------------------------------------------------------------------------------------------------------------------------------------------------------------------------------------
input 1/1          :   'serving_default_co..d_4_input0', f32(1x128x6), 3.00 KBytes, activations                                                                                                                       
output 1/1         :   'nl_11', f32(1x5), 20 Bytes, activations                                                                                                                                                       
macc               :   986,896                                                                                                                                                                                        
weights (ro)       :   284,308 B (277.64 KiB) (1 segment)                                                                                                                                                             
activations (rw)   :   48,896 B (47.75 KiB) (1 segment) *                                                                                                                                                             
ram (total)        :   48,896 B (47.75 KiB) = 48,896 + 0 + 0                                                                                                                                                          
----------------------------------------------------------------------------------------------------------------------------------------------------------------------------------------------------------------------
(*) 'input'/'output' buffers can be used from the activations buffer

Model name - Model_CNN_Hand_Character_Recognition_0_9246
------ ------------------------------------------------ ---------------------- ---------------- --------- -------------------------------- --- --------------- ------------------ ----------------------------- 
m_id   layer (type,original)                            oshape                 param/size            macc                     connected to   | c_size          c_macc             c_type                        
------ ------------------------------------------------ ---------------------- ---------------- --------- -------------------------------- --- --------------- ------------------ ----------------------------- 
0      serving_default_co..d_4_input0 (Input, )         [b:1,h:128,c:6]                                                                      |                                    
       reshape_0 (Reshape, EXPAND_DIMS)                 [b:1,h:1,w:128,c:6]                                 serving_default_co..d_4_input0   |                                    
------ ------------------------------------------------ ---------------------- ---------------- --------- -------------------------------- --- --------------- ------------------ ----------------------------- 
1      conv2d_1 (Conv2D, CONV_2D)                       [b:1,h:1,w:126,c:64]   1,216/4,864        145,216                        reshape_0   |                 +8,064(+5.6%)      Conv2D_/Nonlinearity_[0, 1]   
       nl_1_nl (Nonlinearity, CONV_2D)                  [b:1,h:1,w:126,c:64]                        8,064                         conv2d_1   |                 -8,064(-100.0%)    
------ ------------------------------------------------ ---------------------- ---------------- --------- -------------------------------- --- --------------- ------------------ ----------------------------- 
2      reshape_2 (Reshape, RESHAPE)                     [b:1,h:126,c:64]                                                           nl_1_nl   |                                    
------ ------------------------------------------------ ---------------------- ---------------- --------- -------------------------------- --- --------------- ------------------ ----------------------------- 
3      reshape_3 (Reshape, EXPAND_DIMS)                 [b:1,h:1,w:126,c:64]                                                     reshape_2   |                                    
------ ------------------------------------------------ ---------------------- ---------------- --------- -------------------------------- --- --------------- ------------------ ----------------------------- 
4      conv2d_4 (Conv2D, CONV_2D)                       [b:1,h:1,w:124,c:32]   6,176/24,704       761,888                        reshape_3   |                 +3,968(+0.5%)      Conv2D_/Nonlinearity_[2, 3]   
       nl_4_nl (Nonlinearity, CONV_2D)                  [b:1,h:1,w:124,c:32]                        3,968                         conv2d_4   |                 -3,968(-100.0%)    
------ ------------------------------------------------ ---------------------- ---------------- --------- -------------------------------- --- --------------- ------------------ ----------------------------- 
5      reshape_5 (Reshape, RESHAPE)                     [b:1,h:124,c:32]                                                           nl_4_nl   |                                    
------ ------------------------------------------------ ---------------------- ---------------- --------- -------------------------------- --- --------------- ------------------ ----------------------------- 
6      reshape_6 (Reshape, EXPAND_DIMS)                 [b:1,h:124,w:1,c:32]                                                     reshape_5   |                                    
------ ------------------------------------------------ ---------------------- ---------------- --------- -------------------------------- --- --------------- ------------------ ----------------------------- 
7      pool_7 (Pool, MAX_POOL_2D)                       [b:1,h:62,w:1,c:32]                         3,968                        reshape_6   |                                    Pool_[4]                      
------ ------------------------------------------------ ---------------------- ---------------- --------- -------------------------------- --- --------------- ------------------ ----------------------------- 
8      reshape_8 (Reshape, RESHAPE)                     [b:1,c:1984]                                                                pool_7   |                                    
------ ------------------------------------------------ ---------------------- ---------------- --------- -------------------------------- --- --------------- ------------------ ----------------------------- 
9      model_CNN_dense_4_MatMul (Placeholder, )         [b:32,c:1984]          63,488/253,952                                                | +128(+0.1%)     +63,552(+100.0%)   Dense_/Nonlinearity_[5, 6]    
       model_CNN_dense_4_..VariableOp (Placeholder, )   [b:32]                 32/128                                                        | -128(-100.0%)                      
       gemm_9 (Gemm, FULLY_CONNECTED)                   [b:1,c:32]                                 63,520                        reshape_8   |                 -63,520(-100.0%)   
                                                                                                                  model_CNN_dense_4_MatMul   | 
                                                                                                            model_CNN_dense_4_..VariableOp   | 
       nl_9_nl (Nonlinearity, FULLY_CONNECTED)          [b:1,c:32]                                     32                           gemm_9   |                 -32(-100.0%)       
------ ------------------------------------------------ ---------------------- ---------------- --------- -------------------------------- --- --------------- ------------------ ----------------------------- 
10     model_CNN_dense_5_MatMul (Placeholder, )         [b:5,c:32]             160/640                                                       | +20(+3.1%)      +165(+100.0%)      Dense_[7]                     
       model_CNN_dense_5_..VariableOp (Placeholder, )   [b:5]                  5/20                                                          | -20(-100.0%)                       
       gemm_10 (Gemm, FULLY_CONNECTED)                  [b:1,c:5]                                     165                          nl_9_nl   |                 -165(-100.0%)      
                                                                                                                  model_CNN_dense_5_MatMul   | 
                                                                                                            model_CNN_dense_5_..VariableOp   | 
------ ------------------------------------------------ ---------------------- ---------------- --------- -------------------------------- --- --------------- ------------------ ----------------------------- 
11     nl_11 (Nonlinearity, SOFTMAX)                    [b:1,c:5]                                      75                          gemm_10   |                                    Nonlinearity_[o][8]           
------ ------------------------------------------------ ---------------------- ---------------- --------- -------------------------------- --- --------------- ------------------ ----------------------------- 
model/c-model: macc=986,896/986,896  weights=284,308/284,308  activations=--/48,896 io=--/0



Generated C-graph summary
------------------------------------------------------------------------------------------------------------------------
model name            : Model_CNN_Hand_Character_Recognition_0_9246
c-name                : network
c-node #              : 9
c-array #             : 20
activations size      : 48896 (1 segment)
weights size          : 284308 (1 segment)
macc                  : 986896
inputs                : ['serving_default_conv1d_4_input0_output']
outputs               : ['nl_11_output']

C-Arrays (20)
------ ---------------------------------------- -------------- ------------------------- ------------- --------- 
c_id   name (*_array)                           item/size      domain/mem-pool           c-type        comment   
------ ---------------------------------------- -------------- ------------------------- ------------- --------- 
0      conv2d_1_bias                            64/256         weights/weights           const float             
1      conv2d_1_output                          8064/32256     activations/**default**   float                   
2      conv2d_1_scratch0                        18/72          activations/**default**   float                   
3      conv2d_1_weights                         1152/4608      weights/weights           const float             
4      conv2d_4_bias                            32/128         weights/weights           const float             
5      conv2d_4_output                          3968/15872     activations/**default**   float                   
6      conv2d_4_scratch0                        192/768        activations/**default**   float                   
7      conv2d_4_weights                         6144/24576     weights/weights           const float             
8      gemm_10_bias                             5/20           weights/weights           const float             
9      gemm_10_output                           5/20           activations/**default**   float                   
10     gemm_10_weights                          160/640        weights/weights           const float             
11     gemm_9_bias                              32/128         weights/weights           const float             
12     gemm_9_output                            32/128         activations/**default**   float                   
13     gemm_9_weights                           63488/253952   weights/weights           const float             
14     nl_11_output                             5/20           activations/**default**   float         /output   
15     nl_1_nl_output                           8064/32256     activations/**default**   float                   
16     nl_4_nl_output                           3968/15872     activations/**default**   float                   
17     nl_9_nl_output                           32/128         activations/**default**   float                   
18     pool_7_output                            1984/7936      activations/**default**   float                   
19     serving_default_conv1d_4_input0_output   768/3072       activations/**default**   float         /input    
------ ---------------------------------------- -------------- ------------------------- ------------- --------- 

C-Layers (9)
------ ---------------- ---- --------------- -------- -------- ------------------------------------------- ---------------------- 
c_id   name (*_layer)   id   layer_type      macc     rom      tensors                                     shape (array id)       
------ ---------------- ---- --------------- -------- -------- ------------------------------------------- ---------------------- 
0      conv2d_1         1    Conv2D          145216   4864     I: serving_default_conv1d_4_input0_output   f32(1x128x6) (19)      
                                                               S: conv2d_1_scratch0                                               
                                                               W: conv2d_1_weights                         f32(64x1x3x6) (3)      
                                                               W: conv2d_1_bias                            f32(64) (0)            
                                                               O: conv2d_1_output                          f32(1x1x126x64) (1)    
------ ---------------- ---- --------------- -------- -------- ------------------------------------------- ---------------------- 
1      nl_1_nl          1    Nonlinearity    8064     0        I: conv2d_1_output                          f32(1x1x126x64) (1)    
                                                               O: nl_1_nl_output                           f32(1x1x126x64) (15)   
------ ---------------- ---- --------------- -------- -------- ------------------------------------------- ---------------------- 
2      conv2d_4         4    Conv2D          761888   24704    I: nl_1_nl_output                           f32(1x1x126x64) (15)   
                                                               S: conv2d_4_scratch0                                               
                                                               W: conv2d_4_weights                         f32(32x1x3x64) (7)     
                                                               W: conv2d_4_bias                            f32(32) (4)            
                                                               O: conv2d_4_output                          f32(1x1x124x32) (5)    
------ ---------------- ---- --------------- -------- -------- ------------------------------------------- ---------------------- 
3      nl_4_nl          4    Nonlinearity    3968     0        I: conv2d_4_output                          f32(1x1x124x32) (5)    
                                                               O: nl_4_nl_output                           f32(1x1x124x32) (16)   
------ ---------------- ---- --------------- -------- -------- ------------------------------------------- ---------------------- 
4      pool_7           7    Pool            3968     0        I: nl_4_nl_output                           f32(1x1x124x32) (16)   
                                                               O: pool_7_output                            f32(1x62x1x32) (18)    
------ ---------------- ---- --------------- -------- -------- ------------------------------------------- ---------------------- 
5      gemm_9           9    Dense           63520    254080   I: pool_7_output                            f32(1x62x1x32) (18)    
                                                               W: gemm_9_weights                           f32(32x1984) (13)      
                                                               W: gemm_9_bias                              f32(32) (11)           
                                                               O: gemm_9_output                            f32(1x32) (12)         
------ ---------------- ---- --------------- -------- -------- ------------------------------------------- ---------------------- 
6      nl_9_nl          9    Nonlinearity    32       0        I: gemm_9_output                            f32(1x32) (12)         
                                                               O: nl_9_nl_output                           f32(1x32) (17)         
------ ---------------- ---- --------------- -------- -------- ------------------------------------------- ---------------------- 
7      gemm_10          10   Dense           165      660      I: nl_9_nl_output                           f32(1x32) (17)         
                                                               W: gemm_10_weights                          f32(5x32) (10)         
                                                               W: gemm_10_bias                             f32(5) (8)             
                                                               O: gemm_10_output                           f32(1x5) (9)           
------ ---------------- ---- --------------- -------- -------- ------------------------------------------- ---------------------- 
8      nl_11            11   Nonlinearity    75       0        I: gemm_10_output                           f32(1x5) (9)           
                                                               O: nl_11_output                             f32(1x5) (14)          
------ ---------------- ---- --------------- -------- -------- ------------------------------------------- ---------------------- 



Number of operations per c-layer
------- ------ ------------------------ --------- -------------- 
c_id    m_id   name (type)                    #op           type 
------- ------ ------------------------ --------- -------------- 
0       1      conv2d_1 (Conv2D)          145,216   smul_f32_f32 
1       1      nl_1_nl (Nonlinearity)       8,064     op_f32_f32 
2       4      conv2d_4 (Conv2D)          761,888   smul_f32_f32 
3       4      nl_4_nl (Nonlinearity)       3,968     op_f32_f32 
4       7      pool_7 (Pool)                3,968   smul_f32_f32 
5       9      gemm_9 (Dense)              63,520   smul_f32_f32 
6       9      nl_9_nl (Nonlinearity)          32     op_f32_f32 
7       10     gemm_10 (Dense)                165   smul_f32_f32 
8       11     nl_11 (Nonlinearity)            75     op_f32_f32 
------- ------ ------------------------ --------- -------------- 
total                                     986,896 

Number of operation types
---------------- --------- ----------- 
operation type           #           % 
---------------- --------- ----------- 
smul_f32_f32       974,757       98.8% 
op_f32_f32          12,139        1.2% 

Complexity report (model)
------ -------------------------- ------------------------- ------------------------- -------- 
m_id   name                       c_macc                    c_rom                     c_id     
------ -------------------------- ------------------------- ------------------------- -------- 
1      conv2d_1                   ||||              15.5%   |                  1.7%   [0, 1]   
4      conv2d_4                   ||||||||||||||||  77.6%   ||                 8.7%   [2, 3]   
7      pool_7                     |                  0.4%   |                  0.0%   [4]      
9      model_CNN_dense_4_MatMul   ||                 6.4%   ||||||||||||||||  89.4%   [5, 6]   
10     model_CNN_dense_5_MatMul   |                  0.0%   |                  0.2%   [7]      
11     nl_11                      |                  0.0%   |                  0.0%   [8]      
------ -------------------------- ------------------------- ------------------------- -------- 
macc=986,896 weights=284,308 act=48,896 ram_io=0
 
 Requested memory size by section - "stm32u5" target
 ------------------------------- -------- --------- ------- -------- 
 module                              text    rodata    data      bss 
 ------------------------------- -------- --------- ------- -------- 
 NetworkRuntime1000_CM33_GCC.a      9,460         0       0        0 
 network.o                            662        72   2,860      208 
 network_data.o                        48        16      88        0 
 lib (toolchain)*                     614        24       0        0 
 ------------------------------- -------- --------- ------- -------- 
 RT total**                        10,784       112   2,948      208 
 ------------------------------- -------- --------- ------- -------- 
 weights                                0   284,312       0        0 
 activations                            0         0       0   48,896 
 io                                     0         0       0        0 
 ------------------------------- -------- --------- ------- -------- 
 TOTAL                             10,784   284,424   2,948   49,104 
 ------------------------------- -------- --------- ------- -------- 
 *  toolchain objects (libm/libgcc*)
 ** RT AI runtime objects (kernels+infrastructure)
  
  Summary - "stm32u5" target
  -------------------------------------------------
               FLASH (ro)     %*   RAM (rw)      % 
  -------------------------------------------------
  RT total         13,844   4.6%      3,156   6.1% 
  -------------------------------------------------
  TOTAL           298,156            52,052        
  -------------------------------------------------
  *  rt/total


Generated files (7)
------------------------------------------------------------------ 
C:\Users\yukse\.stm32cubemx\network_output\network_data_params.h   
C:\Users\yukse\.stm32cubemx\network_output\network_data_params.c   
C:\Users\yukse\.stm32cubemx\network_output\network_data.h          
C:\Users\yukse\.stm32cubemx\network_output\network_data.c          
C:\Users\yukse\.stm32cubemx\network_output\network_config.h        
C:\Users\yukse\.stm32cubemx\network_output\network.h               
C:\Users\yukse\.stm32cubemx\network_output\network.c               
